…
e=<span class="number">0.1</span>))</span><br><span class="line">model.add(Flatten())</span><br><span class="line">model.add(Dense(<span class="number">1</span>, activation=<span class="string">'sigmoid'</span>))</span><br><span class="line"></span><br><span class="line">model.summary()</span><br></pre></td></tr></table></figure>
<pre><code>Model: &quot;sequential&quot;
_________________________________________________________________
Layer (type)                 Output Shape              Param #   
=================================================================
conv2d (Conv2D)              (None, 30, 30, 32)        896       
_________________________________________________________________
max_pooling2d (MaxPooling2D) (None, 15, 15, 32)        0         
_________________________________________________________________
conv2d_1 (Conv2D)            (None, 11, 11, 64)        51264     
_________________________________________________________________
max_pooling2d_1 (MaxPooling2 (None, 5, 5, 64)          0         
_________________________________________________________________
dropout (Dropout)            (None, 5, 5, 64)          0         
_________________________________________________________________
flatten (Flatten)            (None, 1600)              0         
_________________________________________________________________
dense (Dense)                (None, 1)                 1601      
=================================================================
Total params: 53,761
Trainable params: 53,761
Non-trainable params: 0
_________________________________________________________________
</code></pre><figure class="highlight python"><table><tr><td class="code"><pre><span class="line">model.compile(<span class="string">'adam'</span>, <span class="string">'binary_crossentropy'</span>, metrics=[<span class="string">'accuracy'</span>])</span><br></pre></td></tr></table></figure>
…
